(0.5, [1, 3, 3], [5, 5, 1], 5)
{'setup_000': {'hyperparams': (0.05, [1, 3, 3], [3, 3, 1], 5),
               'test-statistic': 0.012713411029482369,
               'trained_cvae': VAE(
  (encoder): Encoder(
    (MLP): Sequential(
      (L0): Linear(in_features=4, out_features=3, bias=True)
      (A0): ReLU()
      (L1): Linear(in_features=3, out_features=3, bias=True)
      (A1): ReLU()
    )
    (linear_means): Linear(in_features=3, out_features=5, bias=True)
    (linear_log_vars): Linear(in_features=3, out_features=5, bias=True)
  )
  (decoder): Decoder(
    (MLP): Sequential(
      (L0): Linear(in_features=8, out_features=3, bias=True)
      (A0): ReLU()
      (L1): Linear(in_features=3, out_features=3, bias=True)
      (A1): ReLU()
      (L2): Linear(in_features=3, out_features=1, bias=True)
    )
  )
)},
 'setup_001': {'hyperparams': (0.005, [1, 32, 32, 32], [32, 32, 32, 1], 3),
               'test-statistic': 0.0067309801419732085,
               'trained_cvae': VAE(
  (encoder): Encoder(
    (MLP): Sequential(
      (L0): Linear(in_features=4, out_features=32, bias=True)
      (A0): ReLU()
      (L1): Linear(in_features=32, out_features=32, bias=True)
      (A1): ReLU()
      (L2): Linear(in_features=32, out_features=32, bias=True)
      (A2): ReLU()
    )
    (linear_means): Linear(in_features=32, out_features=3, bias=True)
    (linear_log_vars): Linear(in_features=32, out_features=3, bias=True)
  )
  (decoder): Decoder(
    (MLP): Sequential(
      (L0): Linear(in_features=6, out_features=32, bias=True)
      (A0): ReLU()
      (L1): Linear(in_features=32, out_features=32, bias=True)
      (A1): ReLU()
      (L2): Linear(in_features=32, out_features=32, bias=True)
      (A2): ReLU()
      (L3): Linear(in_features=32, out_features=1, bias=True)
    )
  )
)},
 'setup_002': {'hyperparams': (0.5, [1, 3, 3], [5, 5, 1], 3),
               'test-statistic': 0.0008071029410021691,
               'trained_cvae': VAE(
  (encoder): Encoder(
    (MLP): Sequential(
      (L0): Linear(in_features=4, out_features=3, bias=True)
      (A0): ReLU()
      (L1): Linear(in_features=3, out_features=3, bias=True)
      (A1): ReLU()
    )
    (linear_means): Linear(in_features=3, out_features=3, bias=True)
    (linear_log_vars): Linear(in_features=3, out_features=3, bias=True)
  )
  (decoder): Decoder(
    (MLP): Sequential(
      (L0): Linear(in_features=6, out_features=5, bias=True)
      (A0): ReLU()
      (L1): Linear(in_features=5, out_features=5, bias=True)
      (A1): ReLU()
      (L2): Linear(in_features=5, out_features=1, bias=True)
    )
  )
)},
 'setup_003': {'hyperparams': (0.01, [1, 32, 32, 32], [2, 2, 1], 5),
               'test-statistic': 0.00473335243348022,
               'trained_cvae': VAE(
  (encoder): Encoder(
    (MLP): Sequential(
      (L0): Linear(in_features=4, out_features=32, bias=True)
      (A0): ReLU()
      (L1): Linear(in_features=32, out_features=32, bias=True)
      (A1): ReLU()
      (L2): Linear(in_features=32, out_features=32, bias=True)
      (A2): ReLU()
    )
    (linear_means): Linear(in_features=32, out_features=5, bias=True)
    (linear_log_vars): Linear(in_features=32, out_features=5, bias=True)
  )
  (decoder): Decoder(
    (MLP): Sequential(
      (L0): Linear(in_features=8, out_features=2, bias=True)
      (A0): ReLU()
      (L1): Linear(in_features=2, out_features=2, bias=True)
      (A1): ReLU()
      (L2): Linear(in_features=2, out_features=1, bias=True)
    )
  )
)},
 'setup_004': {'hyperparams': (1, [1, 2, 2], [2, 1], 3),
               'test-statistic': 0.13679056722662036,
               'trained_cvae': VAE(
  (encoder): Encoder(
    (MLP): Sequential(
      (L0): Linear(in_features=4, out_features=2, bias=True)
      (A0): ReLU()
      (L1): Linear(in_features=2, out_features=2, bias=True)
      (A1): ReLU()
    )
    (linear_means): Linear(in_features=2, out_features=3, bias=True)
    (linear_log_vars): Linear(in_features=2, out_features=3, bias=True)
  )
  (decoder): Decoder(
    (MLP): Sequential(
      (L0): Linear(in_features=6, out_features=2, bias=True)
      (A0): ReLU()
      (L1): Linear(in_features=2, out_features=1, bias=True)
    )
  )
)},
 'setup_005': {'hyperparams': (5, [1, 3, 3], [2, 1], 1),
               'test-statistic': 0.14132798806126984,
               'trained_cvae': VAE(
  (encoder): Encoder(
    (MLP): Sequential(
      (L0): Linear(in_features=4, out_features=3, bias=True)
      (A0): ReLU()
      (L1): Linear(in_features=3, out_features=3, bias=True)
      (A1): ReLU()
    )
    (linear_means): Linear(in_features=3, out_features=1, bias=True)
    (linear_log_vars): Linear(in_features=3, out_features=1, bias=True)
  )
  (decoder): Decoder(
    (MLP): Sequential(
      (L0): Linear(in_features=4, out_features=2, bias=True)
      (A0): ReLU()
      (L1): Linear(in_features=2, out_features=1, bias=True)
    )
  )
)},
 'setup_006': {'hyperparams': (0.005, [1, 3, 3], [32, 32, 32, 1], 5),
               'test-statistic': 0.004537537714436879,
               'trained_cvae': VAE(
  (encoder): Encoder(
    (MLP): Sequential(
      (L0): Linear(in_features=4, out_features=3, bias=True)
      (A0): ReLU()
      (L1): Linear(in_features=3, out_features=3, bias=True)
      (A1): ReLU()
    )
    (linear_means): Linear(in_features=3, out_features=5, bias=True)
    (linear_log_vars): Linear(in_features=3, out_features=5, bias=True)
  )
  (decoder): Decoder(
    (MLP): Sequential(
      (L0): Linear(in_features=8, out_features=32, bias=True)
      (A0): ReLU()
      (L1): Linear(in_features=32, out_features=32, bias=True)
      (A1): ReLU()
      (L2): Linear(in_features=32, out_features=32, bias=True)
      (A2): ReLU()
      (L3): Linear(in_features=32, out_features=1, bias=True)
    )
  )
)},
 'setup_007': {'hyperparams': (0.5, [1, 3, 3], [5, 5, 1], 5),
               'test-statistic': -0.0002739903080705153,
               'trained_cvae': VAE(
  (encoder): Encoder(
    (MLP): Sequential(
      (L0): Linear(in_features=4, out_features=3, bias=True)
      (A0): ReLU()
      (L1): Linear(in_features=3, out_features=3, bias=True)
      (A1): ReLU()
    )
    (linear_means): Linear(in_features=3, out_features=5, bias=True)
    (linear_log_vars): Linear(in_features=3, out_features=5, bias=True)
  )
  (decoder): Decoder(
    (MLP): Sequential(
      (L0): Linear(in_features=8, out_features=5, bias=True)
      (A0): ReLU()
      (L1): Linear(in_features=5, out_features=5, bias=True)
      (A1): ReLU()
      (L2): Linear(in_features=5, out_features=1, bias=True)
    )
  )
)},
 'setup_008': {'hyperparams': (0.1, [1, 32, 32, 32], [2, 2, 1], 1),
               'test-statistic': 0.0016471291033236524,
               'trained_cvae': VAE(
  (encoder): Encoder(
    (MLP): Sequential(
      (L0): Linear(in_features=4, out_features=32, bias=True)
      (A0): ReLU()
      (L1): Linear(in_features=32, out_features=32, bias=True)
      (A1): ReLU()
      (L2): Linear(in_features=32, out_features=32, bias=True)
      (A2): ReLU()
    )
    (linear_means): Linear(in_features=32, out_features=1, bias=True)
    (linear_log_vars): Linear(in_features=32, out_features=1, bias=True)
  )
  (decoder): Decoder(
    (MLP): Sequential(
      (L0): Linear(in_features=4, out_features=2, bias=True)
      (A0): ReLU()
      (L1): Linear(in_features=2, out_features=2, bias=True)
      (A1): ReLU()
      (L2): Linear(in_features=2, out_features=1, bias=True)
    )
  )
)},
 'setup_009': {'hyperparams': (5, [1, 2, 2], [32, 32, 32, 1], 1),
               'test-statistic': 0.14020121323229834,
               'trained_cvae': VAE(
  (encoder): Encoder(
    (MLP): Sequential(
      (L0): Linear(in_features=4, out_features=2, bias=True)
      (A0): ReLU()
      (L1): Linear(in_features=2, out_features=2, bias=True)
      (A1): ReLU()
    )
    (linear_means): Linear(in_features=2, out_features=1, bias=True)
    (linear_log_vars): Linear(in_features=2, out_features=1, bias=True)
  )
  (decoder): Decoder(
    (MLP): Sequential(
      (L0): Linear(in_features=4, out_features=32, bias=True)
      (A0): ReLU()
      (L1): Linear(in_features=32, out_features=32, bias=True)
      (A1): ReLU()
      (L2): Linear(in_features=32, out_features=32, bias=True)
      (A2): ReLU()
      (L3): Linear(in_features=32, out_features=1, bias=True)
    )
  )
)}}
